AI-software development practice/实验1_2021112845_张智雄/checkpoint.pt (torch, 3543 bytes, 6 tensors)

fc1.weight f4 [16, 4]
0	0xbf894b6c	-1.0726142
1	0xbf6d9912	-0.9281169
2	0x3f0ac5da	0.5420815
3	0xbf626324	-0.88432527
4	0x3ec41e7f	0.38304517
5	0xbf9af805	-1.210694
6	0xbf9b6413	-1.2139915
7	0x3c211b94	0.009833235
8	0x3ed34976	0.41266984
9	0xbef965f9	-0.4871061
10	0x3f922477	1.1417378
11	0xbde26600	-0.11054611
12	0x3f87d2c0	1.0611191
13	0x3f000e37	0.5002169
14	0xbef17bb0	-0.4716468
15	0x3e02e8db	0.1278414
16	0xbf43a2c9	-0.76420265
17	0x3e9dfbbc	0.3085612
18	0x3fa5298d	1.2903305
19	0x3e961414	0.29312193
20	0x3ec05c5e	0.3757047
21	0xbf5aec98	-0.85517263
22	0x3faabc3d	1.3338696
23	0x3f3090bf	0.68970865
24	0x3f904ea0	1.1273994
25	0xbebdbcfc	-0.37058246
26	0xbf6aabb7	-0.91668266
27	0xbfb42a76	-1.4075458
28	0xbe5ca7b0	-0.21548343
29	0x3e062be8	0.13102686
30	0x3f207630	0.6268034
31	0xbef59dfc	-0.47972095
32	0xbf69c885	-0.91321594
33	0xbed7cffa	-0.4215086
34	0x3e056158	0.13025415
35	0x3ed51260	0.41615582
36	0xbe33d54b	-0.17561834
37	0x3e9562f3	0.29177055
38	0x3f514beb	0.81756467
39	0x3f41f4dd	0.75764257
40	0xbf44cba2	-0.7687322
41	0xbe8fe16c	-0.2810167
42	0xbf7151d4	-0.94265485
43	0x3f67cf1e	0.9055041
44	0xbe981ccf	-0.2970948
45	0x3f3bc92f	0.73353857
46	0xbec02c60	-0.37533855
47	0xbf3e08ba	-0.74232066
48	0x3f519a29	0.81875855
49	0x3f09f73f	0.5389289
50	0x3e3c70d8	0.18402421
51	0xbe28f273	-0.16498737
52	0xbd965c2e	-0.07341801
53	0xbf85bf45	-1.0448996
54	0x3f76fe3c	0.9648168
55	0xbedf2f14	-0.43590605
56	0x3f31b087	0.69409984
57	0x3f9069c6	1.128228
58	0xbf471a3c	-0.77774405
59	0xbfd19182	-1.637253
60	0xbed1ecee	-0.41001076
61	0xbe55bac0	-0.2087202
62	0x3ee829ac	0.45344293
63	0x3f169618	0.58822775

fc1.bias f4 [16]
0	0xbe971936	-0.29511422
1	0x3eaa676e	0.33282036
2	0x3f0d8895	0.5528653
3	0xbc95ac51	-0.018270643
4	0x3e18f459	0.14936961
5	0x3ee0b67b	0.43889222
6	0x3eb9c6f9	0.36284617
7	0xbe5c96e8	-0.21541941
8	0x3efdf5a8	0.49601483
9	0xbe8e868e	-0.27837032
10	0xbd9a0c50	-0.0752188
11	0x3edcad87	0.4310114
12	0xbe336970	-0.1752069
13	0x3ec3273c	0.3811587
14	0x3f19a756	0.6002096
15	0xbecb3518	-0.39688945

fc2.weight f4 [16, 16]
0	0xbdb91a10	-0.09038174
1	0xbe6f6cd2	-0.23381355
2	0x3ebd8afe	0.37020105
3	0xbeb0a424	-0.3450023
4	0x3f8ab49c	1.0836368
5	0x3ef1dead	0.472402
6	0xbeb2ebd7	-0.34945557
7	0xbc916800	-0.017749786
8	0xbe4648d0	-0.19363713
9	0x3f25e95a	0.6480919
10	0x3f0fcd19	0.5617233
11	0x3e46ee29	0.19426788
12	0x3ee5fe75	0.44920698
13	0x3f228f00	0.6349945
14	0xbf393355	-0.7234395
15	0x3e8cded4	0.27513754
16	0xbe6fc742	-0.23415855
17	0xbe0cc5f0	-0.13747382
18	0x3c2ea1ec	0.010658722
19	0x3e0e2772	0.13882235
20	0x3f829a04	1.0203252
21	0x3ebc561d	0.3678445
22	0xbed1bfc6	-0.40966624
23	0xbe168cec	-0.14702195
24	0xbd890260	-0.06689906
25	0x3c6a4af9	0.014300101
26	0xbf0d7911	-0.5526286
27	0xbeb146cf	-0.34624335
28	0xbefa07b9	-0.48834017
29	0x3eefbd54	0.46824133
30	0xbf336b6e	-0.700858
31	0xbf1c6e62	-0.6110593
32	0x3e43154c	0.19051093
33	0xbf0db972	-0.5536109
34	0x3f6e24b2	0.9302474
35	0xbea189f1	-0.31550553
36	0x3f388638	0.720798
37	0x3ea6e1cd	0.32594147
38	0xbf545a79	-0.8295055
39	0xbe5fefea	-0.21868864
40	0xbf1cb1d5	-0.6120885
41	0x3f6c9cb5	0.92426616
42	0x3f06c71b	0.5264756
43	0xbf23504e	-0.6379441
44	0x3f2eea7e	0.68326557
45	0x3ef08b14	0.46981108
46	0xbf0c7dcc	-0.5487945
47	0xbece04d6	-0.40238065
48	0xbd179e30	-0.037016094
49	0xbf0235ba	-0.5086323
50	0x3efdee0d	0.4959568
51	0x3f2b663f	0.6695289
52	0xbf1b6955	-0.607076
53	0xbe993fc8	-0.29931474
54	0x3e8f4da4	0.27988923
55	0xbe1fbfb4	-0.15600473
56	0xbf0f1ee1	-0.5590649
57	0xbf8b3f23	-1.0878643
58	0xbb808b00	-0.00392282
59	0x3f845cec	1.0340858
60	0xbbc8caca	-0.00612769
61	0xbf0ce5e0	-0.5503826
62	0x3f85f4dd	1.0465351
63	0xbec742ac	-0.38918054
64	0x3e9600ac	0.29297388
65	0xbe0a13b4	-0.13484079
66	0xbe44d6fc	-0.19222635
67	0x3ed9c95b	0.42536435
68	0xbef63f39	-0.4809511
69	0x3e2248be	0.15848061
70	0xbde7b11b	-0.11313077
71	0x3e31d070	0.17364669
72	0x3eed6e6e	0.46373314
73	0xbea39005	-0.31945816
74	0xbf08454f	-0.53230757
75	0x3e979024	0.29602158
76	0x3ef5b3ab	0.47988638
77	0xbef09561	-0.46988967
78	0x3f85ea1b	1.0462068
79	0xbefa0b1f	-0.4883661
80	0xbea307dd	-0.31841937
81	0xbdc69a81	-0.09697438
82	0x3f2a59eb	0.66543454
83	0x3efe352d	0.49649945
84	0x3f0b535c	0.5442407
85	0x3eaf9551	0.34293607
86	0xbece6ff0	-0.40319777
87	0x3f0454db	0.5169198
88	0xbe9ce46e	-0.30643028
89	0x3ea66b42	0.32503706
90	0xbeae5bf6	-0.34054536
91	0xbec8d6fd	-0.39226523
92	0xbef1fc55	-0.47262827
93	0x3f6740b4	0.90333104
94	0xbdb30f8c	-0.087432
95	0xbe2d89c0	-0.16947079
96	0x3ec64cde	0.3873052
97	0xbf036801	-0.5133057
98	0xbec8affb	-0.39196762
99	0x3f39bd7c	0.72554755
100	0xbed0bba1	-0.4076815
101	0xbe42cd52	-0.19023636
102	0x3f5a3acb	0.8524596
103	0xbe25690a	-0.1615335
104	0x3f0501e5	0.51956016
105	0xbe5ee76a	-0.21767965
106	0x3dcf2cc8	0.10115963
107	0x3ea9b52d	0.3314604
108	0x3f1d46c6	0.61436117
109	0xbf391663	-0.72299784
110	0x3f62dc38	0.8861728
111	0xbf03a2c9	-0.51420265
112	0x3ea0e5aa	0.3142522
113	0xbe00c23a	-0.12574092
114	0x3f2efd14	0.68354917
115	0x3d04b03c	0.032394633
116	0x3ea91eae	0.3303122
117	0x3f16d1c7	0.58913845
118	0xbee5ea0f	-0.44905135
119	0x3c738d00	0.01486516
120	0x3f0ecec1	0.5578423
121	0x3f294614	0.66122556
122	0xbe28e2ea	-0.16492811
123	0xbeb291fb	-0.34877
124	0xbe6a0872	-0.22854784
125	0x3e4e983e	0.20175263
126	0xbf33259f	-0.6997928
127	0xbe11fe2a	-0.14257112
128	0xbef5ba33	-0.4799362
129	0x3db105e6	0.08643703
130	0x3e9c1361	0.30483535
131	0x3ef1e845	0.4724752
132	0x3f593a6b	0.84854764
133	0x3f0d569f	0.552103
134	0xbf3f8138	-0.7480655
135	0x3d734b20	0.059397817
136	0x3d409050	0.047012627
137	0x3f3bc9d0	0.73354816
138	0x3f093de5	0.5361007
139	0xbf020cdd	-0.5080088
140	0xbe00569b	-0.12533037
141	0x3f3301d6	0.69924676
142	0xbe74ed70	-0.239187
143	0x3dbf77c8	0.09349018
144	0x3e56eadc	0.20988029
145	0xbee64326	-0.44973105
146	0xbc79b06d	-0.015239817
147	0x3e690067	0.2275406
148	0xbf41ffec	-0.7578113
149	0xbf223af5	-0.6337121
150	0x3f0bdfe5	0.5463851
151	0xbeb7c836	-0.35894936
152	0x3eed4ec2	0.4634915
153	0xbe0c9555	-0.1372884
154	0x3e988780	0.29790878
155	0x3f5bd0d3	0.85865515
156	0xbdb09045	-0.08621267
157	0xbe887e8c	-0.26659048
158	0x3f51614d	0.81789094
159	0x3e8fc908	0.28083062
160	0xbe9594a3	-0.29214963
161	0x3f1969e7	0.5992722
162	0xbd9b6168	-0.07586938
163	0x3d8bd7c0	0.068282604
164	0x3b001b00	0.0019547343
165	0xbefe1a28	-0.4962933
166	0xbc1d6540	-0.009606659
167	0xbf169063	-0.58814067
168	0xbf1c6514	-0.6109173
169	0xbe098a9c	-0.13431782
170	0x3deffa58	0.11717671
171	0xbf091734	-0.5355103
172	0xbd7b88c0	-0.06140971
173	0x3b8aee80	0.004239857
174	0xbe43d584	-0.19124418
175	0x3d278050	0.040893853
176	0xbf102a74	-0.5631478
177	0x3f0fe1cf	0.5620393
178	0xbe16aa2a	-0.1471335
179	0xbe81edf0	-0.25376844
180	0xbeb9c032	-0.36279446
181	0x3e8216e0	0.25408077
182	0xbe52ba12	-0.20578793
183	0x3db1d6d8	0.08683556
184	0xbed93968	-0.4242661
185	0x3f151e21	0.582491
186	0x3e82bea0	0.2553606
187	0x3ed741a2	0.4204226
188	0xbeeb90c9	-0.460089
189	0xbee7a578	-0.4524343
190	0xbea4a540	-0.32157326
191	0xbf1c7be1	-0.61126524
192	0x3e9a7a1a	0.3017128
193	0xbd463efb	-0.048399907
194	0x3db65652	0.08903183
195	0x3f2a47ac	0.6651561
196	0xbf11341e	-0.5672015
197	0xbc9f440f	-0.019441633
198	0x3d666e64	0.05625762
199	0xbeee16fe	-0.46501917
200	0xbd811e28	-0.0630458
201	0xbe0b110e	-0.13580725
202	0xbd0a8050	-0.033813775
203	0x3ef565c3	0.479292
204	0x3e64c0d3	0.22339182
205	0xbee79be5	-0.45236126
206	0x3eb78817	0.35846016
207	0xbc859d20	-0.016310275
208	0x3ee08ffe	0.43859857
209	0x3e519c93	0.20469885
210	0xbe552948	-0.20816529
211	0xbe32dc9e	-0.17466971
212	0xbf402033	-0.7504913
213	0x3e1dcba3	0.15409712
214	0x3f0b9bd7	0.5453467
215	0x3f174a97	0.5909819
216	0xbe66c8da	-0.22537556
217	0xbee5b7c7	-0.44866773
218	0xbee382e4	-0.444358
219	0x3f138177	0.5761942
220	0x3efddf6c	0.4958452
221	0xbeabec51	-0.33578733
222	0x3f4489de	0.7677287
223	0xbe7542e4	-0.23951298
224	0x3d31e3d0	0.04343015
225	0xbdc7d1be	-0.09756802
226	0x3f1a7ccd	0.6034668
227	0x3ebf88ed	0.37409154
228	0xbf13e10d	-0.57765275
229	0xbedcdf6f	-0.43139216
230	0x3f12a567	0.57283634
231	0xbf1529a0	-0.5826664
232	0xbeee2318	-0.4651115
233	0x3e40f42d	0.18843146
234	0x3e4bec58	0.19914377
235	0xbeccf3c8	-0.4002974
236	0x3e617f96	0.22021326
237	0x3dc14778	0.0943746
238	0x3db2c181	0.08728314
239	0xbe55d194	-0.20880729
240	0xbf124dcf	-0.57149976
241	0x3e19a6a2	0.15004972
242	0x3cfb72b5	0.030694345
243	0x3f60f3f5	0.8787225
244	0xbf63cb43	-0.8898203
245	0xbe34c477	-0.1765307
246	0x3ecc4b75	0.3990132
247	0xbed7102e	-0.42004532
248	0xbe8603df	-0.26174828
249	0xbf54e1f4	-0.8315728
250	0x3eb20edc	0.34776962
251	0x3ea99878	0.33124137
252	0x3eac3401	0.33633426
253	0xbf3e9e08	-0.74459887
254	0x3f6d11f0	0.92605495
255	0x3f1088b1	0.56458575

fc2.bias f4 [16]
0	0xbe096fba	-0.13421527
1	0xbca318bb	-0.019909253
2	0x3e6e973e	0.23299882
3	0x3d47cb1c	0.048777685
4	0xbc68e063	-0.014213654
5	0x3d419752	0.04726345
6	0x3b989ebb	0.004657594
7	0x3dbb2226	0.09137373
8	0x3e5c2b54	0.21500903
9	0x3d9ff30d	0.0781003
10	0xbcb6aa10	-0.022297889
11	0x3d3f25b0	0.0466668
12	0x3e8cb7ff	0.27484128
13	0x3e06c902	0.13162616
14	0x3def0888	0.11671549
15	0x3e2f01be	0.17090508

fc3.weight f4 [3, 16]
0	0xbec6573b	-0.38738427
1	0xbeb1e96e	-0.34748405
2	0xbf6828d7	-0.90687317
3	0x3f41fdae	0.7577771
4	0x3d2174f5	0.03941818
5	0xbf414d16	-0.7550825
6	0x3ea60554	0.3242594
7	0xbf2fa621	-0.6861287
8	0xbee6ea2f	-0.45100543
9	0x3dc3c161	0.095583685
10	0xbc1b6ac0	-0.0094859
11	0xbbf03300	-0.0073302984
12	0x3f0499b5	0.5179704
13	0x3ecd9d40	0.40159035
14	0xbd092f14	-0.033492163
15	0x3f124685	0.57138854
16	0xbe6c0f58	-0.23052728
17	0xbed1c12e	-0.40967697
18	0x3e1036ed	0.14083453
19	0x3f0e8b0d	0.55680925
20	0x39c3ab67	0.00037321003
21	0x3e9f538c	0.3111843
22	0xbdd73937	-0.1050896
23	0xbe7e618c	-0.24841899
24	0x3eed9b21	0.46407416
25	0xbf3a6153	-0.72804755
26	0x3e8b1b76	0.2716939
27	0x3e7a5928	0.24448073
28	0x3f2e828a	0.68167937
29	0x3da110b6	0.078645155
30	0x3e75c625	0.24001367
31	0x3ddc06b5	0.10743467
32	0x3ead0f30	0.3380065
33	0x3f493f10	0.7861185
34	0x3f3341e3	0.7002241
35	0xbf871789	-1.0554057
36	0xbee3d899	-0.44501188
37	0x3ecb65bc	0.39726055
38	0xbf520ee1	-0.82053953
39	0x3f072705	0.52793914
40	0x3f190cda	0.59785235
41	0xbdf9e995	-0.12202755
42	0x3eaa5656	0.33268994
43	0xbe27be74	-0.16381246
44	0xbde13b86	-0.10997681
45	0xbf80d7d5	-1.0065867
46	0xbeb801f5	-0.35938993
47	0xbf70e51b	-0.9409959

fc3.bias f4 [3]
0	0x3e4f5b72	0.20249727
1	0xbe02b918	-0.1276592
2	0xbc0848f8	-0.008318178
